2_calculator/results/calculator_model.safetensors (safetensors, 1095 bytes, 5 tensors)

layers.0.bias f4 [10]
-0.7629509 -0.49085906 0.11081907 -0.18857293 -0.8815248 0.5863187 -0.22908384 -0.7843392
-0.36621064 -0.29146698
00000000: c050 43bf e151 fbbe 1cf5 e23d 4319 41be
00000010: 9cab 61bf fb18 163f f494 6abe 74ca 48bf
00000020: f67f bbbe 293b 95be

layers.0.weight f4 [10, 3]
0.52416295 0.4539225 -8.374069 0.28630573 0.42155218 -6.8291574 0.05805746 -0.53345597
-2.5980434 0.016280036 -0.03546958 -3.1647952 0.023392858 -0.051184602 -3.803046 -0.89550287
-0.7176947 -0.76128477 0.33376694 0.48150444 -7.3385735 -0.9811791 0.98142606 1.4069852
0.9756614 -0.9728259 0.2283005 -0.35343474 -0.31623197 -0.38344836
00000000: 8b2f 063f 8868 e83e 30fc 05c1 aa96 923e
00000010: b0d5 d73e 7588 dac0 a9cd 6d3d 9290 08bf
00000020: 5846 26c0 b65d 853c 8d48 11bd 018c 4ac0
00000030: 61a2 bf3c f2a6 51bd 1b65 73c0 ad3f 65bf
00000040: d7ba 37bf 8fe3 42bf 80e3 aa3e c087 f63e
00000050: 98d5 eac0 8e2e 7bbf bd3e 7b3f 1718 b43f
00000060: f2c4 793f 1e0b 79bf 9bc7 693e 66f5 b4be
00000070: 28e9 a1be 5853 c4be

layers.1.bias f4 [10]
-0.6000709 -0.5235611 0.80302835 -0.71019435 -0.5460686 -0.047698002 -0.66226864 -1.3126032
0.28960165 -0.1308662
00000000: 3f9e 19bf 1a08 06bf 4493 4d3f 4ccf 35bf
00000010: 27cb 0bbf fb5e 43bd 708a 29bf 6203 a8bf
00000020: ab46 943e ca01 06be

layers.1.weight f4 [10, 10]
-0.1789487 -0.055287883 -0.51149297 -0.37288046 -0.2092861 -0.0068450365 -0.14694344 -0.06307817
-0.11869539 0.04621676 -0.30043373 -0.5124194 -0.15926267 -0.17075796 -0.21966109 -0.27247083
0.04967779 -0.16241479 -0.4272778 0.08413416 -0.0010293128 -1.4077864 0.48215508 -0.107048534
-0.80693406 0.6073686 -1.7345386 0.87367713 -0.5545571 -0.30263788 -0.3380267 -0.28528893
-0.64875877 -0.7570573 -0.56542003 0.075692035 -1.0683132 0.6019506 -0.98707175 -0.12910786
-0.31355205 -0.11175202 -0.42555583 -0.29941118 -0.25057775 -0.4882583 0.28306487 -0.31378198
-0.08697897 0.024235964 -0.48317924 -0.49312645 -0.66256875 -0.038162816 -0.37815398 -0.8921006
-0.005768608 -0.013470868 0.0037613045 0.10946545 -0.18538785 -0.30840114 -0.78359777 -0.41753587
-0.381833 -0.26221082 -0.20251195 -0.56412727 0.017098546 0.098287106 -1.2617382 -1.3693203
-0.22020073 -0.55872303 -0.70816475 0.3012763 -1.1777688 -1.2211564 1.1550436 0.13098416
1.3175726 0.49671352 0.027687367 0.023123682 0.17668055 -0.9371315 0.8503764 -0.1322199
0.084215835 0.15817578 1.0784085 0.5245002 -0.05604861 -0.008056213 -0.39295182 -0.31109813
0.79155505 0.022593608 0.056064114 0.25473267
00000000: 543e 37be 8c75 62bd 34f1 02bf 30ea bebe
00000010: 184f 56be 544c e0bb 5778 16be 212f 81bd
00000020: 9216 f3bd c94d 3d3d 73d2 99be eb2d 03bf
00000030: c115 23be 2ddb 2ebe d6ee 60be 4c81 8bbe
00000040: f07a 4b3d 1050 26be 28c4 dabe 884e ac3d
00000050: 02ea 86ba 5832 b4bf 08dd f63e 433c dbbd
00000060: 3b93 4ebf 827c 1b3f 5c05 debf 4ea9 5f3f
00000070: 74f7 0dbf 5af3 9abe d611 adbe 6411 92be
00000080: 0e15 26bf 82ce 41bf 5ebf 10bf 6d04 9b3d
00000090: 7dbe 88bf 6f19 1a3f bcb0 7cbf da34 04be
000000a0: e589 a0be 3ede e4bd 74e2 d9be 6c4c 99be
000000b0: ba4b 80be fefc f9be e1ed 903e 08a8 a0be
000000c0: 0822 b2bd 808a c63c 4563 f7be 127b fcbe
000000d0: 1b9e 29bf 9d50 1cbd 669d c1be b460 64bf
000000e0: 9706 bdbb eab4 5cbc 3880 763b 6c2f e03d
000000f0: 50d6 3dbe c1e6 9dbe dd99 48bf 43c7 d5be
00000100: 9d7f c3be 7f40 86be 4b5f 4fbe a56a 10bf
00000110: 4012 8c3c c04a c93d a380 a1bf e345 afbf
00000120: 4d7c 61be 7908 0fbf 494a 35bf e340 9a3e
00000130: 21c1 96bf da4e 9cbf 78d8 933f b620 063e
00000140: 38a6 a83f 3c51 fe3e 9ed0 e23c e06d bd3c
00000150: bfeb 343e dae7 6fbf 45b2 593f a764 07be
00000160: 5a79 ac3d d5f8 213e 4a09 8a3f a545 063f
00000170: 3a93 65bd 35fe 03bc fb30 c9be 4148 9fbe
00000180: 5aa3 4a3f 3b16 b93c 7ca3 653d 526c 823e

layers.2.weight f4 [1, 10]
0.1993538 0.3025748 -0.9323949 -0.3453988 0.054978784 -0.06439051 -0.30304933 0.8534965
0.5028832 0.39836478
00000000: 6723 4c3e 16eb 9a3e 6fb1 6ebf 1dd8 b0be
00000010: 6f31 613d 2cdf 83bd 4829 9bbe bf7e 5a3f
00000020: f4bc 003f 78f6 cb3e
